assignments/assignment-02/model.pth (torch, 109391 bytes, 8 tensors)

weight f4 [16, 3, 3, 3]
0.087574154 -0.10994131 -0.17786743 -0.08481751 -0.007892542 -0.1601985 0.08149952 -0.060653824
-0.1351628 -0.31467596 -0.20137718 -0.25340003 -0.05993543 -0.06497353 -0.006084492 -0.33628583
-0.306065 -0.22451995 -0.20932233 -0.1874902 0.02841534 -0.10202211 -0.068236284 -0.02462613
-0.1195571 0.070619315 -0.089563556 -0.20534448 -0.1411169 -0.18468583 -0.109208986 -0.06985343
-0.074470036 -0.0019941854 0.066221595 -0.19065319 0.17835936 -0.02236863 0.15823911 0.13449274
-0.07640406 0.08387264 -0.16318046 -0.12358155 0.15199077 0.118606254 -0.14032258 0.21816142
0.20895502 0.13009152 0.16126406 0.11027235 -0.14189261 -0.124062404 0.22812128 0.17442313
-0.06649071 0.15499096 0.30342558 0.12734433 0.25778055 -0.031394638 0.059310924 0.04020634
0.13892442 0.16391218 0.20159763 0.07915457 0.01115733 0.0816961 0.12920229 0.17917015
0.25932083 0.01024294 0.274469 0.15952624 -0.022027444 0.14872542 0.15934746 0.030470334
-0.11092687 -0.0007399322 0.06779272 0.097655065 0.16589522 0.27256683 0.17658201 -0.08493698
-0.053952467 0.04935017 0.16816317 -0.01760439 -0.22349228 0.18664432 -0.09830333 0.12531605
-0.04908558 0.18044885 0.013976931 0.16843548 0.07255962 -0.0034565874 0.04487544 0.04041428
0.048216708 0.09776365 -0.023406278 0.19011238 0.016549269 0.12422496 0.13709222 0.068544075
0.17856488 -0.08616052 -0.33335468 -0.11220105 -0.13675521 0.28397632 0.016081288 0.18040349
0.056396686 0.1886313 0.1001729 -0.28527275 -0.2520719 -0.14630805 0.09468794 0.06254174
-0.09120474 0.15827918 0.17571901 -0.037300263 -0.23239605 -0.25294697 0.028514413 -0.20708415
-0.061233535 -0.1929756 0.025365317 -0.13289537 -0.058653384 -0.14405176 -0.13762042 -0.05013588
0.11890942 0.10266071 -0.17199363 -0.07639415 0.016796328 0.061320346 0.12448997 0.17879787
0.07964326 0.123776644 0.13993049 0.12118579 0.2203528 0.20230484 0.25917462 0.06906092
0.2592242 0.2934867 -0.017896418 -0.21677352 -0.16547467 0.0392919 0.013183018 -0.041396372
0.13802686 0.11979238 0.07507905 -0.108274 -0.31111458 -0.106777534 -0.0708299 -0.024432467
-0.072892845 0.12366864 0.34063148 0.35955292 -0.17299418 -0.1469207 -0.2716255 0.117332846
-0.071833044 0.03459925 0.09813599 0.035530146 0.31452465 -0.09502814 -0.25291133 0.004398659
0.06421863 -0.3337098 -0.111337185 -0.25238526 -0.2700215 -0.31008953 0.06460526 -0.13605331
-0.25226524 0.119699895 -0.29645434 0.019374399 -0.20852226 -0.22708897 -0.31167075 -0.0375267
-0.11765013 -0.1265273 0.080107406 -0.18311659 -0.2885712 0.13782911 -0.19433165 -0.094026215
-0.15913711 0.00012393926 0.08297131 0.024243489 -0.14194688 0.12055796 -0.012238989 -0.2327413
0.28736886 0.15591896 -0.13330689 0.117851965 0.06157129 0.09513485 0.21869779 -0.035376232
-0.0793113 0.25844818 0.11209398 -0.23085888 -0.06570517 -0.0486044 -0.27315623 0.04189791
-0.06305388 -0.1728848 0.119424276 -0.064013906 -0.22661793 0.01030021 0.024354758 -0.21038531
0.02640561 -0.12956774 0.045405023 0.050066426 -0.017366214 -0.0420621 0.007191634 -0.16182934
00000000: 145a b33d e928 e1bd e122 36be cdb4 adbd
00000010: b84f 01bc 130b 24be 38e9 a63d 2570 78bd
00000020: 1e68 0abe 351d a1be d235 4ebe a6bd 81be
00000030: da7e 75bd d810 85bd 6b60 c7bb a82d acbe
00000040: 8db4 9cbe 8fe8 65be 9858 56be 6efd 3fbe
00000050: 4ac7 e83c f8f0 d0bd 77bf 8bbd bdbc c9bc
00000060: 5ada f4bd dca0 903d 196d b7bd d345 52be
00000070: f380 10be 481e 3dbe f6a8 dfbd 510f 8fbd
00000080: bf83 98bd e1b0 02bb 309f 873d 973a 43be
00000090: d6a3 363e 6b3e b7bc 6f09 223e 77b8 093e
000000a0: bb79 9cbd 6bc5 ab3d c718 27be 5318 fdbd
000000b0: 78a3 1b3e d6e7 f23d b9b0 0fbe b565 5f3e
000000c0: 4ef8 553e b636 053e 6822 253e 78d6 e13d
000000d0: 4c4c 11be 6e14 febd a098 693e fa9b 323e
000000e0: 482c 88bd f3b5 1e3e 995a 9b3e 8d66 023e
000000f0: d0fb 833e aa97 00bd 03f0 723d 67af 243d
00000100: 3442 0e3e 98d8 273e 9c6f 4e3e cb1b a23d
00000110: 3ccd 363c 4950 a73d 9b4d 043e 6178 373e
00000120: b3c5 843e 01d2 273c 3387 8c3e d95a 233e
00000130: e672 b4bc 7a4b 183e fb2b 233e ec9c f93c
00000140: a02d e3bd 02f8 41ba e9d6 8a3d 61ff c73d
00000150: 70e0 293e e18d 8b3e ead1 343e 70f3 adbd
00000160: 43fd 5cbd 6723 4a3d f732 2c3e 1537 90bc
00000170: 29db 64be b01f 3f3e 4253 c9bd da52 003e
00000180: f60d 49bd 95c7 383e 7fff 643c 5a7a 2c3e
00000190: 239a 943d ea87 62bb 4fcf 373d 7289 253d
000001a0: e27e 453d 4f38 c83d 86be bfbc d2ac 423e
000001b0: 5592 873c a869 fe3d e761 0c3e d660 8c3d
000001c0: b6d9 363e ed74 b0bd 77ad aabe aac9 e5bd
000001d0: 8f09 0cbe 5865 913e e8bc 833c b1bb 383e
000001e0: 3600 673d 9028 413e 7327 cd3d 450f 92be
000001f0: 910f 81be c7d1 15be c0eb c13d e215 803d
00000200: 8dc9 babd f013 223e afef 333e 29c8 18bd
00000210: 3bf9 6dbe 4482 81be 0f97 e93c de0d 54be
00000220: 04d0 7abd 659b 45be edca cf3c b915 08be
00000230: 883e 70bd 4e82 13be 5eec 0cbe 485b 4dbd
00000240: c886 f33d c73f d23d 191f 30be 8974 9cbd
00000250: 7498 893c 0b2b 7b3d 99f4 fe3d ca16 373e
00000260: 011c a33d 9c7e fd3d f049 0f3e 4130 f83d
00000270: 2aa4 613e 0029 4f3e 89b2 843e d06f 8d3d
00000280: 09b9 843e e443 963e 829b 92bc e1f9 5dbe
00000290: 3172 29be 8bf0 203d 96fd 573c 3e8f 29bd
000002a0: ea56 0d3e b555 f53d 0cc3 993d c2be ddbd
000002b0: 694a 9fbe 2eae dabd 440f 91bd 9926 c8bc
000002c0: d848 95bd fc45 fd3d 4067 ae3e 5217 b83e
000002d0: 6325 31be 6172 16be 7f12 8bbe 344c f03d
000002e0: 341d 93bd f1b7 0d3d 86fb c83d 0f88 113d
000002f0: 6009 a13e 1d9e c2bd 987d 81be a022 903b
00000300: 0f85 833d 03dc aabe c004 e4bd a438 81be
00000310: 4240 8abe 0ec4 9ebe c34f 843d 8f51 0bbe
00000320: e928 81be 3825 f53d ddc8 97be 0fb7 9e3c
00000330: dc86 55be 038a 68be 4f93 9fbe 99b5 19bd
00000340: 8df2 f0bd 5f90 01be 5a0f a43d ea82 3bbe
00000350: 9bbf 93be 1323 0d3e e0fe 46be d190 c0bd
00000360: d7f4 22be b1f5 0139 ddec a93d 489a c63c
00000370: 865a 11be 17e7 f63d 0a86 48bc bc53 6ebe
00000380: 0322 933e 38a9 1f3e 9a81 08be 5f5c f13d
00000390: 2d32 7c3d 0fd6 c23d 50f2 5f3e abe6 10bd
000003a0: f66d a2bd 5253 843e 8791 e53d 4566 6cbe
000003b0: 6f90 86bd 6815 47bd 22db 8bbe 259d 2b3d
000003c0: 6522 81bd b708 31be b794 f43d b919 83bd
000003d0: 880e 68be 36c2 283c a183 c73c 3f6f 57be
000003e0: 9450 d83c 68ad 04be 9efa 393d 7412 4d3d
000003f0: 9743 8ebc 4f49 2cbd cca7 eb3b 97b6 25be

bias f4 [16]
-0.15169923 0.11935716 -0.06929188 0.385811 -0.07115567 0.20675495 0.032071408 0.20126984
0.068698995 0.12809207 -0.1168856 0.09899188 0.20206617 0.075111866 -0.088794254 -0.05294152
00000000: 0b57 1bbe 8771 f43d e7e8 8dbd 0589 c53e
00000010: 10ba 91bd 92b7 533e 4f5d 033d ae19 4e3e
00000020: 0fb2 8c3d 912a 033e b861 efbd 41bc ca3d
00000030: 6fea 4e3e 40d4 993d c3d9 b5bd 35d9 58bd

weight f4 [32, 16, 3, 3]
-0.06842267 0.0041566514 0.04693378 -0.021015251 -0.020865006 0.062522694 -0.04059739 0.0639883
0.1001658 0.1217256 0.1344203 0.049567707 0.14928624 0.08795489 0.14795054 0.11984322
0.098056555 0.13187051 0.05158471 -0.037543975 -0.029893536 -0.01357397 -0.0096350955 -0.0038640304
0.061821673 0.06648191 0.04564355 0.05974892 0.016544418 0.03444373 0.023643956 0.0021890793
0.021794807 -0.039504178 0.0068665813 -0.09098782 0.045115374 0.06485858 0.13415258 0.030924305
0.021836407 0.047778152 0.020410327 0.12794955 -0.058180355 0.088311635 0.11042428 0.037905347
0.013867188 -0.0004743028 -0.0002098756 0.008531607 0.07947062 -0.009770055 -0.0145825 0.004532364
0.0039627776 0.0015850823 -0.009584758 -0.0527797 0.026227295 0.042157225 0.04843694 0.07201581
-0.02018748 -0.02426421 0.0005925795 -0.03355798 0.060095444 0.08059384 0.028515521 0.045395393
-0.056334756 -0.12881953 -0.05128911 -0.19713594 -0.2514019 -0.17376302 -0.12747833 -0.06492013
-0.11631562 0.0722121 0.063508876 0.052426893 -0.029024767 0.026356436 0.07710371 -0.04036068
0.018567199 0.05423819 -0.036441933 0.0028245917 -0.055047493 -0.002086169 -0.057748914 0.101146
-0.061264124 0.045102827 -0.04966709 -0.14564505 -0.070831515 -0.06956129 -0.13946335 -0.11798272
-0.09633446 -0.013990993 0.027420098 -0.05138232 0.16303618 0.026891073 0.025014995 0.14105274
0.011696601 0.032385208 0.02919026 0.09849144 0.12170458 -0.16514279 -0.13806438 -0.15461797
-0.03826165 -0.1236181 -0.14401627 -0.13675539 -0.09569063 -0.18854013 -0.05212875 -0.0051934263
-0.08951883 0.0130860275 -0.009224431 0.04629433 -0.060448505 -0.0009877239 0.014524711 0.07001265
0.024915095 -0.03598881 0.0152412895 -0.025372155 0.1340703 0.07493114 0.094906084 0.02073053
0.13399562 0.13257316 0.11262911 0.02069621 0.07001714 0.110910475 0.09787592 0.05728419
0.16707754 0.0057241023 0.0141684525 -0.021567134 0.014013192 -0.068362676 0.0029745672 0.003114876
0.0064851 0.0020669855 0.049171384 -0.030285418 0.042947475 -0.03532582 0.06649576 -0.06435195
-0.04033841 -0.06598342 -0.121281445 0.021624055 0.09487228 -0.005703231 0.057231218 -0.014675456
-0.07494359 0.09175067 -0.035828236 0.036697768 -0.057022367 -0.01934495 -0.021884022 0.07029528
0.18596241 0.043075394 0.1976466 0.118162215 0.17430441 -0.030919455 0.024540085 -0.032405745
0.03565805 -0.017396677 -0.09171038 0.06404827 -0.08999533 -0.114524655 0.10362301 -0.08784931
-0.10620247 -0.036929347 0.025034966 -0.05948266 0.054537665 0.08836555 0.10027675 0.11282344
0.053518943 0.004043248 0.07535448 0.07533031 0.14125599 0.09241404 0.18767396 0.15770668
-0.12660803 -0.049086146 -0.19921733 -0.14104073 -0.194452 -0.21225286 -0.2698828 -0.3285181
-0.28561834 0.07666847 -0.05093947 0.115355805 -0.040983245 -0.03678732 0.10012993 -0.05451556
-0.020369356 0.020546181 -0.004762564 0.12644568 0.031504467 -0.0761198 -0.016598217 -0.031563405
-0.18109745 -0.023292216 -0.039964065 0.080519855 0.16859211 0.14385 0.014229731 0.0675579
0.0903995 0.008079212 0.0733112 0.035653505 0.091028586 0.024125533 0.0694146 0.12934428
00000000: 2f21 8cbd 8534 883b a33d 403d 2d28 acbc
00000010: 17ed aabc e60b 803d 7349 26bd 4c0c 833d
00000020: ba23 cd3d 454b f93d 7aa5 093e 8207 4b3d
00000030: 7ede 183e b221 b43d 5980 173e 5d70 f53d
00000040: e0d1 c83d 1009 073e 7d4a 533d b6c7 19bd
00000050: 4ae3 f4bc 5b65 5ebc 85dc 1dbc ac3b 7dbb
00000060: b938 7d3d ab27 883d bbf4 3a3d 49bb 743d
00000070: 2988 873c de14 0d3d f8b0 c13c a876 0f3b
00000080: 068b b23c 22cf 21bd 0f01 e13b d257 babd
00000090: e6ca 383d 93d4 843d 4b5f 093e f854 fd3c
000000a0: 44e2 b23c 06b3 433d 8f33 a73c 3505 033e
000000b0: 864e 6ebd bbdc b43d 2026 e23d a342 1b3d
000000c0: 3433 633c d8ab f8b9 0d12 5cb9 27c8 0b3c
000000d0: 7ec1 a23d 9512 20bc 70eb 6ebc 3a84 943b
000000e0: 30da 813b 89c2 cf3a 6409 1dbc 872f 58bd
000000f0: a0da d63c 0ead 2c3d d065 463d 067d 933d
00000100: 3760 a5bc bdc5 c6bc 5657 1b3a 1874 09bd
00000110: a426 763d 620e a53d 6299 e93c 85f0 393d
00000120: 46bf 66bd 44e9 03be 8814 52bd 01de 49be
00000130: c0b7 80be efee 31be ae89 02be d8f4 84bd
00000140: e236 eebd f0e3 933d f110 823d 95bd 563d
00000150: 59c5 edbc 74e9 d73c 8de8 9d3d 3e51 25bd
00000160: 3d1a 983c dd28 5e3d 2344 15bd c91c 393b
00000170: 7b79 61bd 1cb8 08bb 208a 6cbd a225 cf3d
00000180: 17f0 7abd bebd 383d b86f 4bbd fa23 15be
00000190: 1d10 91bd 2676 8ebd 7bcf 0ebe eda0 f1bd
000001a0: 004b c5bd 7a3a 65bc 1da0 e03c 4476 52bd
000001b0: f5f2 263e ab4a dc3c 3fec cc3c 2170 103e
000001c0: 1aa3 3f3c 5aa6 043d 6a20 ef3c e1b5 c93d
000001d0: 4040 f93d 311b 29be c060 0dbe 2c54 1ebe
000001e0: 3fb8 1cbd 7d2b fdbd 0079 13be 9b09 0cbe
000001f0: 73f9 c3bd aa10 41be f584 55bd 9e2d aabb
00000200: a655 b7bd c766 563c 1122 17bc 209f 3d3d
00000210: da98 77bd 8476 81ba 0ef9 6d3c cb62 8f3d
00000220: be1a cc3c 0169 13bd 9ab6 793c 44d9 cfbc
00000230: ba49 093e 7f75 993d 1f5e c23d 13d3 a93c
00000240: 2636 093e 42c1 073e 17aa e63d 198b a93c
00000250: 2565 8f3d 0825 e33d 2c73 c83d d4a2 6a3d
00000260: 6016 2b3e 4091 bb3b cc22 683c 8fad b0bc
00000270: 9697 653c bb01 8cbd f5f0 423b f322 4c3b
00000280: f680 d43b 4376 073b ef67 493d 2019 f8bc
00000290: b1e9 2f3d cfb1 10bd ee2e 883d f5ca 83bd
000002a0: e339 25bd 5122 87bd 6862 f8bd ee24 b13c
000002b0: 664c c23d 2be2 babb 486b 6a3d 5371 70bc
000002c0: 067c 99bd c6e7 bb3d a1c0 12bd 6650 163d
000002d0: 4990 69bd 4d79 9ebc 1f46 b3bc f9f6 8f3d
000002e0: ee6c 3e3e d36f 303d df63 4a3e 08ff f13d
000002f0: db7c 323e cc4a fdbc 4a08 c93c e3bb 04bd
00000300: 2d0e 123d 7a83 8ebc a7d2 bbbd bd2b 833d
00000310: 794f b8bd e78b eabd 4d38 d43d 57ea b3bd
00000320: ae80 d9bd 3a43 17bd 2116 cd3c 17a4 73bd
00000330: e362 5f3d fff8 b43d e65d cd3d fa0f e73d
00000340: ae36 5b3d 397d 843b 7353 9a3d c746 9a3d
00000350: 69a5 103e 9243 bd3d 9a2d 403e dc7d 213e
00000360: 89a5 01be 8e0e 49bd a1ff 4bbe fb6c 10be
00000370: 6d1e 47be d058 59be 142e 8abe 8633 a8be
00000380: 913c 92be 5c04 9d3d e8a5 50bd aa3f ec3d
00000390: 0cde 27bd 4dae 16bd ec10 cd3d b54b 5fbd
000003a0: a3dd a6bc 7750 a83c 480f 9cbb fa7a 013e
000003b0: d40a 013d b3e4 9bbd fcf8 87bc a148 01bd
000003c0: 9c71 39be 51cf bebc 5cb1 23bd 98e7 a43d
000003d0: 69a3 2c3e 6a4d 133e d123 693c cc5b 8a3d
000003e0: 6023 b93d ac5e 043c 2f24 963d 6909 123d
000003f0: 326d ba3d e9a2 c53c 3e29 8e3d d472 043e

bias f4 [32]
-0.028975956 0.10455879 -0.08796629 -0.0036371045 0.026418077 -0.14814691 -0.039446782 0.017754534
0.0924879 0.17004873 -0.074570656 0.16409467 0.11373752 -0.06760323 0.13828929 -0.078549
-0.08894254 0.06343745 0.14363615 -0.0400376 -0.06991194 0.18832858 -0.07503923 -0.05654622
-0.0090871 -0.015076701 0.09292326 -0.096445315 -0.12471107 0.10636173 0.053242397 -0.031065434
00000000: fc5e edbc eb22 d63d ac27 b4bd 7d5c 6ebb
00000010: b96a d83c d3b3 17be f392 21bd f571 913c
00000020: 4c6a bd3d 4121 2e3e 80b8 98bd 6f08 283e
00000030: 38ef e83d 9073 8abd b59b 0d3e 4cde a0bd
00000040: 8227 b6bd 7eeb 813d 5b15 133e 77fe 23bd
00000050: fe2d 8fbd 35d9 403e 2bae 99bd 029d 67bd
00000060: 0fe2 14bc 4404 77bc 8d4e be3d 1f85 c5bd
00000070: 8468 ffbd 2ed4 d93d b314 5a3d f07c febc

weight f4 [64, 32, 3, 3]
0.0026609192 0.0010215512 0.023282202 0.045396436 0.039042648 0.13938093 0.07736939 0.024431456
0.058494203 -0.018178811 0.051021706 0.066509165 0.016191384 0.016119061 0.061269548 0.009029946
0.03063689 0.013279649 0.0013425003 -0.010998567 -0.08452129 0.039705068 0.019334419 -0.047294714
0.04049196 0.009336571 -0.048462886 -0.053629108 0.007072227 0.03581887 0.041388262 0.053290453
-0.048865464 0.048003722 0.05098654 -0.030536115 0.051391646 0.005625422 -0.03475468 0.02389781
0.040117383 0.05828194 0.037849795 0.037977744 0.04342007 -0.0071343957 -0.05037807 0.0025079919
0.010206146 -0.07594837 -0.052564718 -0.04911254 -0.07536009 -0.09922764 0.044773217 -0.072950296
-0.053330228 0.017043153 0.012929151 0.0074794074 -0.030874604 -0.049598817 -0.062035706 -0.03870843
0.049837656 -0.0023783292 0.056228954 -0.004593966 0.102826744 0.08231059 0.043814834 -0.030622708
0.045630742 -0.013238117 -0.03114632 -0.035580408 -0.06395901 -0.036626454 0.0066390643 0.055502802
0.0057345126 0.007218622 0.073239006 0.008326377 0.0063252184 0.06416367 0.03660225 -0.0644895
0.061607875 0.057366457 -0.029244602 -0.033064693 -0.004404196 -0.0039763628 0.03315876 -0.04676196
-0.019910112 0.017511982 -0.01587647 0.057178654 0.101150036 0.0657126 0.022742195 -0.010126837
-0.012385682 -0.06247697 0.017005628 0.05461218 0.0051073404 -0.06305808 -0.051697895 -0.032123893
0.034077365 -0.06246845 0.005613352 -0.033333052 -0.049813546 0.021337327 -0.030617125 -0.101148956
0.03137014 -0.04977959 -0.053273927 -0.013351822 0.012431678 -0.07272298 0.007300806 0.014697488
0.03522004 0.033933163 0.06856466 0.051590234 0.08808684 0.003868602 0.045316864 -0.07382483
-0.052087314 -0.045053855 -0.026530234 -0.066071056 -0.036993835 -0.013803481 -0.13157865 -0.09580665
-0.039254352 0.016908377 0.055731222 -0.008955708 0.021302331 -0.055865206 -0.08077452 -0.027353033
-0.022668798 -0.00013404786 -0.0431899 -0.030972948 -0.070200264 -0.057161037 -0.019009499 -0.011386966
-0.03741586 -0.01953459 -0.021015964 0.011174562 0.043192796 0.05244549 0.101811185 0.10668736
-0.0156226205 0.057483025 0.08513273 0.03468037 0.00080681324 0.025227336 0.039834224 0.07189781
0.059456553 -0.008587701 0.048790235 0.023981072 0.010056712 -0.037076395 0.021445563 -0.011119702
0.017396212 0.018037667 -0.025490155 0.05783676 0.02501488 0.030859109 0.08472846 0.039770007
-0.022667017 -0.018127942 0.05132922 -0.0006825231 -0.04587947 -0.034273688 -0.018186051 0.04021513
-0.03343228 0.11868384 0.05661647 -0.0046870634 0.038543664 -0.030681666 0.0071894294 0.04850701
-0.065687075 -0.1017313 -0.0019113149 -0.02433261 -0.08609585 -0.10337347 -0.06650197 -0.05269118
-0.014115608 -0.026814146 -0.042089134 0.103542395 0.04083233 -0.04876915 0.07240573 -0.030449567
-0.036857884 -0.026602684 -0.06506313 -0.05209163 0.024909288 -0.005310497 -0.0078006256 0.004804478
-0.033742484 -0.019988058 0.028885443 -0.03014919 0.029526424 -0.07783409 -0.0721722 0.05233012
0.011965242 0.055973172 0.009782731 -0.054286577 -0.000275691 0.0058778035 -0.0318957 -0.00065073534
-0.020642497 0.052750476 0.04446962 0.0090195015 -0.0125945145 -0.079106055 -0.01982781 0.00474363
00000000: d162 2e3b 92e5 853a 51ba be3c 9df1 393d
00000010: 2feb 1f3d e0b9 0e3e d873 9e3d 7a24 c83c
00000020: 9e97 6f3d bbeb 94bc 23fc 503d f535 883d
00000030: cba3 843c 1f0c 843c c7f5 7a3d 57f2 133c
00000040: 37fa fa3c e392 593c d6f6 af3a 5533 34bc
00000050: 8019 adbd c8a1 223d 3763 9e3c 1ab8 41bd
00000060: e6da 253d 6bf8 183c 0581 46bd 32aa 5bbd
00000070: 24be e73b cfb6 123d bd86 293d 1747 5a3d
00000080: 2727 48bd 8d9f 443d 43d7 503d e026 fabc
00000090: 0c80 523d 7655 b83b ec5a 0ebd 57c5 c33c
000000a0: 2052 243d 0bb9 6e3d 6308 1b3d 8d8e 1b3d
000000b0: 3ed9 313d a6c7 e9bb 3c59 4ebd 1f5d 243b
000000c0: ae37 273c d28a 9bbd 1a4e 57bd 3b2a 49bd
000000d0: 6456 9abd dc37 cbbd 1f64 373d f766 95bd
000000e0: cc70 5abd 159e 8b3c cad4 533c d115 f53b
000000f0: bdec fcbc 2128 4bbd 2719 7ebd bb8c 1ebd
00000100: 9222 4c3d bedd 1bbb 5550 663d fb88 96bb
00000110: d496 d23d 7492 a83d 2f77 333d 79dc fabc
00000120: 4de7 3a3d b0e4 58bc 9126 ffbc c3bc 11bd
00000130: f1fc 82bd 9f05 16bd 828c d93b e856 633d
00000140: 94e8 bb3b 318a ec3b 55fe 953d 5b6b 083c
00000150: c743 cf3b 3e68 833d 3eec 153d 1213 84bd
00000160: 8a58 7c3d 17f9 6a3d 6092 efbc d86e 07bd
00000170: 1351 90bb 264c 82bb 7bd1 073d 7889 3fbd
00000180: 881a a3bc 4a75 8f3c 5f0f 82bc 2a34 6a3d
00000190: c027 cf3d 5494 863d d74d ba3c 08eb 25bc
000001a0: 51ed 4abc dae7 7fbd 634f 8b3c 05b1 5f3d
000001b0: 7a5b a73b 9824 81bd 2cc1 53bd 5894 03bd
000001c0: b594 0b3d ebde 7fbd 36f0 b73b 3d88 08bd
000001d0: 4a09 4cbd 9ecb ae3c c4d0 fabc 2f27 cfbd
000001e0: fa7d 003d afe5 4bbd c335 5abd 9ac1 5abc
000001f0: 3dae 4b3c c9ef 94bd 9a3b ef3b bccd 703c
00000200: e342 103d 80fd 0a3d a16b 8c3d 4850 533d
00000210: e066 b43d 5f88 7d3b 2d9e 393d 7931 97bd
00000220: 8259 55bd 648a 38bd ef55 d9bc 4350 87bd
00000230: d986 17bd ff27 62bc 8ebc 06be 4736 c4bd
00000240: 2cc9 20bd 7083 8a3c 6c46 643d f6ba 12bc
00000250: 3a82 ae3c ead2 64bd 1d6d a5bd 7813 e0bc
00000260: eab3 b9bc 338f 0cb9 e5e7 30bd fbba fdbc
00000270: 28c5 8fbd b121 6abd cfb9 9bbc 6690 3abc
00000280: 5f41 19bd 0107 a0bc ac29 acbc 8315 373c
00000290: eeea 303d 15d1 563d 6282 d03d e77e da3d
000002a0: 05f6 7fbc 5273 6b3d 125a ae3d 010d 0e3d
000002b0: 5280 533a 8fa9 ce3c 3629 233d 293f 933d
000002c0: b788 733d 6eb3 0cbc 45d8 473d f473 c43c
000002d0: e8c4 243c 6bdd 17bd 9bae af3c 692f 36bc
000002e0: 8082 8e3c bbc3 933c bbd0 d0bc 3de6 6c3d
000002f0: 01ec cc3c 3ecc fc3c 1d86 ad3d e0e5 223d
00000300: 2eb0 b9bc 0d81 94bc 973e 523d 5aeb 32ba
00000310: 1cec 3bbd 9162 0cbd eafa 94bc 9fb8 243d
00000320: 49f0 08bd 8310 f33d ace6 673d f095 99bb
00000330: f6df 1d3d 1e58 fbbc 4e95 eb3b 49af 463d
00000340: f286 86bd 8058 d0bd 1685 faba 2f55 c7bc
00000350: 0553 b0bd 78b5 d3bd 2f32 88bd b5d2 57bd
00000360: 2745 67bc 57a9 dbbc a865 2cbd 090e d43d
00000370: cd3f 273d 29c2 47bd 7549 943d 5f71 f9bc
00000380: 4bf8 16bd dfed d9bc d13f 85bd 085e 55bd
00000390: 900e cc3c ad03 aebb 649c ffbb e26e 9d3b
000003a0: 8f35 0abd ffbd a3bc 2aa1 ec3c 6ffb f6bc
000003b0: 66e1 f13c 7b67 9fbd 05cf 93bd 1c58 563d
000003c0: dd09 443c 2044 653d bf47 203c 9a5b 5ebd
000003d0: 9f8a 90b9 979a c03b 11a5 02bd 1c96 2aba
000003e0: 741a a9bc e210 583d c725 363d 88c6 133c
000003f0: 3959 4ebc 5b02 a2bd ee6d a2bc 7470 9b3b

bias f4 [64]
0.103976235 -0.041908693 0.058697816 -0.065155484 -0.0069861095 0.012379556 -0.07815886 -0.15427472
-0.010374757 -0.041427515 -0.060847666 0.12616336 -0.04484348 0.052664384 -0.03494652 -0.09665375
0.022081027 -0.14138201 -0.054436866 -0.03373251 -0.031262774 0.09644532 0.06722512 0.062723555
-0.0050374544 -0.010355979 0.03210525 -0.0905663 -0.02403092 0.10220103 -0.023518039 -0.057998132
-0.14765474 0.11995988 -0.029425796 0.06477397 0.080817185 0.08697649 -0.14415516 0.010289691
0.007048272 -0.0686806 0.1417758 -0.02275596 0.10744336 0.093521886 0.12021232 -0.10110227
-0.03233779 -0.038028657 0.06666407 0.06732073 -0.13571496 -0.057282887 -0.10662805 -0.054071255
-0.04177084 -0.04478435 0.0028503176 -0.020581866 0.0729831 0.025900546 0.052486394 -0.070340715
00000000: 7ef1 d43d 73a8 2bbd 1f6d 703d 3d70 85bd
00000010: bceb e4bb 9fd3 4a3c c111 a0bd 31fa 1dbe
00000020: e3fa 29bc e6af 29bd 673b 79bd f830 013e
00000030: ccad 37bd 9cb6 573d 1524 0fbd 67f2 c5bd
00000040: 45e3 b43c 72c6 10be 31f9 5ebd 1a2b 0abd
00000050: 650d 00bd 2085 c53d 53ad 893d 3575 803d
00000060: 3b11 a5bb 20ac 29bc cb80 033d d37a b9bd
00000070: 7edc c4bc c64e d13d e7a8 c0bc 738f 6dbd
00000080: ce32 17be 87ad f53d 5e0e f1bc 37a8 843d
00000090: 7b83 a53d bb20 b23d 699d 13be 1896 283c
000000a0: 31f5 e63b 6aa8 8cbd ad2d 113e b56a babc
000000b0: 440b dc3d 6788 bf3d e031 f63d b50e cfbd
000000c0: a174 04bd f0c3 1bbd 2c87 883d 73df 893d
000000d0: ddf8 0abe 76a1 6abd cf5f dabd d279 5dbd
000000e0: e617 2bbd cb6f 37bd 65cc 3a3b 4d9b a8bc
000000f0: 2a78 953d 622d d43c f9fb 563d cb0e 90bd

weight f4 [10, 256]
0.016527066 -0.020514475 0.10562836 0.010160104 0.03570614 -0.092012964 0.030336834 0.0130163105
-0.008120294 0.083148405 -0.008714782 -0.020597266 0.048495434 -0.0004592045 -0.08646676 0.022457507
0.10166727 -0.038889553 0.02693064 0.0006072621 0.06298893 0.061337765 0.012996699 0.08700939
0.08245756 -0.0629155 -0.017872766 0.022321597 0.0041101812 0.035063412 -0.042989865 -0.0337722
-0.04636952 5.3087802e-05 -0.07593319 -0.009850173 -0.06743646 -0.10186458 0.07517346 0.028139444
-0.003607245 0.014134788 -0.093961544 0.08993479 0.059832696 0.086453825 0.057183865 -0.04520858
0.04037163 -0.005691472 0.110445604 0.039831314 0.0030249734 0.07013065 -0.013433622 0.038259722
-0.012424649 0.029164648 -0.10558405 -0.098022915 -0.04746143 -0.121842735 0.05513623 -0.04074125
0.08765543 0.041948676 -0.09953509 -0.026429506 0.050755907 -0.04680533 0.036323782 -0.05954609
-0.12978609 -0.14409782 -0.06675685 0.013977872 0.05580692 -0.04351365 -0.085805036 -0.0071588326
-0.050363 -0.011625161 -0.0797102 0.02127716 0.02355022 0.10902662 0.12422339 0.038720746
0.13996083 -0.023860596 0.051689103 0.08553586 0.105847426 0.008243064 0.040455952 -0.00033882185
-0.028495338 -0.038646325 0.031276584 0.015383396 -0.08140152 0.0030214258 -0.0011285387 -0.031285144
-0.04133952 -0.022878265 0.022114666 0.096944205 -0.08524301 0.009852349 -0.07069103 0.023529954
0.094543 -0.018889984 0.07247691 -0.004322912 0.058582637 0.16755623 -0.04689347 -0.026457835
0.056422934 -0.07226748 0.08015717 -0.032918 -0.024877913 -0.059909105 0.108473785 0.038359363
0.027394876 0.07520398 -0.06527204 0.07192399 0.037608765 -0.053999893 0.03111305 0.031082664
0.083338276 0.054235343 0.075790435 0.04084641 -0.048319302 -0.06329493 -0.079744324 0.05039779
0.034250624 0.05646683 0.017761292 -0.12927422 -0.051519275 -0.023996882 0.047701847 -0.029525725
-0.045557365 -0.03881557 0.040550236 -0.0984664 -0.049172416 -0.08559232 -0.046491526 -0.089381926
0.047945257 -0.07126416 -0.04223125 -0.09964349 -0.0042537306 0.020942058 0.05987455 -0.038694084
0.043000016 0.028602084 0.060806144 0.038984936 0.038304094 -0.028600173 -0.0076770466 0.012009771
0.04136115 0.09328142 0.04283292 -0.010471694 0.025039246 0.077359706 0.027116453 0.033690486
0.110526025 0.109816365 0.073531106 0.043520812 0.107032545 0.041678265 0.030592946 -0.05235194
-0.030336441 -0.023440173 0.04863675 0.005373951 -0.075891465 0.001307797 0.044145297 -0.019878963
-0.056938272 -0.02323249 -0.08427533 -0.009582459 -0.115954325 0.02242198 0.03737385 0.0049458533
0.010451451 0.045535173 0.085685074 0.11209227 0.020477572 0.0844392 0.004316145 -0.047199357
-0.11339376 -0.018321509 -0.050269432 0.04854848 0.08437156 0.046843935 -0.058128424 0.03614524
0.046442397 -0.0071933046 -0.083578885 -0.08292663 -0.04026078 0.04582299 0.08144481 0.059834763
0.10355211 0.077172376 -0.042236302 -0.06492636 -0.06373138 -0.0045311577 -0.083595954 0.07689543
0.09949084 0.08930722 -0.0034090385 -0.04227978 0.0064558014 -0.046806064 0.04350934 0.032935496
-0.03789443 -0.10315256 -0.055072736 -0.026804106 0.030420981 -0.11059223 -0.08453641 -0.05567325
00000000: c563 873c f90d a8bc ae53 d83d 9176 263c
00000010: 9a40 123d 4b71 bcbd f484 f83c 5d42 553c
00000020: fb0a 05bc b649 aa3d 72c8 0ebc 99bb a8bc
00000030: 26a3 463d 62c1 f0b9 7c15 b1bd cef8 b73c
00000040: ee36 d03d a74a 1fbd a59d dc3c ab30 1f3a
00000050: 5700 813d 4f3d 7b3d 1bf0 543c fb31 b23d
00000060: 82df a83d d7d9 80bd e869 92bc c8db b63c
00000070: b3ae 863b a79e 0f3d 2416 30bd b854 0abd
00000080: f7ed 3dbd 98aa 5e38 dc82 9bbd 9f62 21bc
00000090: 201c 8abd 609e d0bd 8bf4 993d b184 e63c
000000a0: 8767 6cbb 9995 673c e96e c0bd bb2f b83d
000000b0: 2113 753d b40e b13d a139 6a3d a22c 39bd
000000c0: b95c 253d 877f babb 4e31 e23d 2926 233d
000000d0: a23e 463b a9a0 8f3d b218 5cbc 3ab6 1c3d
000000e0: c190 4bbc b3ea ee3c 733c d8bd 3dc0 c8bd
000000f0: eb66 42bd af88 f9bd 87d6 613d 4ce0 26bd
00000100: b184 b33d 60d2 2b3d 0ed9 cbbd b182 d8bc
00000110: 6de5 4f3d f2b6 3fbd 3fc8 143d 9ae6 73bd
00000120: a5e6 04be 618e 13be d1b7 88bd 7203 653c
00000130: cc95 643d 5e3b 32bd 8dba afbd a494 eabb
00000140: 6f49 4ebd 7677 3ebc 1a3f a3bd 704d ae3c
00000150: 64ec c03c 5949 df3d d568 fe3d a599 1e3d
00000160: e451 0f3e 4c77 c3bc f4b7 533d 6d2d af3d
00000170: 89c6 d83d eb0d 073c 24b5 253d e6a3 b1b9
00000180: 0e6f e9bc 9c4b 1ebd e01b 003d a40a 7c3c
00000190: d7b5 a6bd 1d03 463b 7aeb 93ba da24 00bd
000001a0: a153 29bd 336b bbbc d129 b53c af8a c63d
000001b0: e393 aebd bf6b 213c 75c6 90bd e4c1 c03c
000001c0: c39f c13d 2bbf 9abc c66e 943d 37a7 8dbb
000001d0: 59f4 6f3d dc93 2b3e 5e13 40bd 1abe d8bc
000001e0: bc1b 673d f900 94bd 7129 a43d 06d5 06bd
000001f0: c4cc cbbc 4063 75bd 8127 de3d b51e 1d3d
00000200: 386b e03c 8b04 9a3d 59ad 85bd e34c 933d
00000210: a60b 1a3d fe2e 5dbd cce0 fe3c 12a1 fe3c
00000220: 42ad aa3d e125 5e3d 0438 9b3d 914e 273d
00000230: 76ea 45bd c6a0 81bd fe50 a3bd ea6d 4e3d
00000240: 624a 0c3d c349 673d 2180 913c 7660 04be
00000250: e005 53bd 1c95 c4bc 0363 433d efdf f1bc
00000260: 5c9a 3abd 13fd 1ebd 0118 263d c0a8 c9bd
00000270: 0469 49bd 074b afbd e66d 3ebd df0d b7bd
00000280: 3f62 443d f2f2 91bd adfa 2cbd e311 ccbd
00000290: e162 8bbb ae8e ab3c 043f 753d b07d 1ebd
000002a0: c920 303d eb4e ea3c dd0f 793d abae 1f3d
000002b0: c1e4 1c3d e94a eabc bc8f fbbb a1c4 443c
000002c0: 4f6a 293d 540a bf3d 9271 2f3d 7891 2bbc
000002d0: 1b1f cd3c c46e 9e3d 5323 de3c 09ff 093d
000002e0: 785b e23d 67e7 e03d 7a97 963d e142 323d
000002f0: e133 db3d d4b6 2a3d 0f9e fa3c fd6e 56bd
00000300: 2184 f8bc 9b05 c0bc 5437 473d f817 b03b
00000310: fc6c 9bbd 636a ab3a b3d1 343d 35d9 a2bc
00000320: 1b38 69bd 1052 bebc 8b98 acbd bfff 1cbc
00000330: 7679 edbd 4dae b73c 5215 193d d310 a23b
00000340: 903c 2b3c 1783 3a3d a87b af3d a290 e53d
00000350: 95c0 a73c 76ee ac3d 736e 8d3b 1d54 41bd
00000360: fd3a e8bd fd16 96bc 52e7 4dbd c5da 463d
00000370: ffca ac3d 6ddf 3f3d 1218 6ebd 080d 143d
00000380: 623a 3e3d d0b5 ebbb 682b abbd 70d5 a9bd
00000390: 7de8 24bd e3b0 3b3d 89cc a63d 4c15 753d
000003a0: 2113 d43d 8d0c 9e3d f9ff 2cbd 1df8 84bd
000003b0: 9985 82bd 1b7a 94bb 5b34 abbd 5a7b 9d3d
000003c0: dbc1 cb3d b4e6 b63d 2d6a 5fbb 902d 2dbd
000003d0: 308b d33b b7b7 3fbd da36 323d 5fe7 063d
000003e0: 3137 1bbd a641 d3bd f393 61bd 4994 dbbc
000003f0: 6c35 f93c 2e7e e2bd 6d21 adbd a209 64bd

bias f4 [10]
-0.04525851 -0.01588879 0.043099184 -0.032920096 0.11067831 -0.02587659 0.024431096 0.020035883
0.046871744 -0.08756576
00000000: fd60 39bd 3529 82bc c588 303d 39d7 06bd
00000010: 4fab e23d 24fb d3bc b923 c83c 4b22 a43c
00000020: 96fc 3f3d ad55 b3bd
